…
2023-05-18 13:46:22,239 - mmdet - INFO - initialize FPN with init_cfg {'type': 'Xavier', 'layer': 'Conv2d', 'distribution': 'uniform'}
2023-05-18 13:46:22,267 - mmdet - INFO - Model:
BEVFormerOcc(
  (pts_bbox_head): BEVFormerOccHead(
    (loss_occ): CrossEntropyLoss()
    (positional_encoding): LearnedPositionalEncoding(num_feats=128, row_num_embed=200, col_num_embed=200)
    (transformer): TransformerOcc(
      (encoder): BEVFormerEncoder(
        (layers): ModuleList(
          (0): BEVFormerLayer(
            (attentions): ModuleList(
              (0): TemporalSelfAttention(
                (dropout): Dropout(p=0.1, inplace=False)
                (sampling_offsets): Linear(in_features=512, out_features=128, bias=True)
                (attention_weights): Linear(in_features=512, out_features=64, bias=True)
                (value_proj): Linear(in_features=256, out_features=256, bias=True)
                (output_proj): Linear(in_features=256, out_features=256, bias=True)
              )
              (1): SpatialCrossAttention(
                (dropout): Dropout(p=0.1, inplace=False)
                (deformable_attention): MSDeformableAttention3D(
                  (sampling_offsets): Linear(in_features=256, out_features=512, bias=True)
                  (attention_weights): Linear(in_features=256, out_features=256, bias=True)
                  (value_proj): Linear(in_features=256, out_features=256, bias=True)
                )
                (output_proj): Linear(in_features=256, out_features=256, bias=True)
              )
            )
            (ffns): ModuleList(
              (0): FFN(
                (activate): ReLU(inplace=True)
                (layers): Sequential(
                  (0): Sequential(
                    (0): Linear(in_features=256, out_features=512, bias=True)
                    (1): ReLU(inplace=True)
                    (2): Dropout(p=0.1, inplace=False)
                  )
                  (1): Linear(in_features=512, out_features=256, bias=True)
                  (2): Dropout(p=0.1, inplace=False)
                )
                (dropout_layer): Identity()
              )
            )
            (norms): ModuleList(
              (0): LayerNorm((256,), eps=1e-05, elementwise_affine=True)
              (1): LayerNorm((256,), eps=1e-05, elementwise_affine=True)
              (2): LayerNorm((256,), eps=1e-05, elementwise_affine=True)
            )
          )
          (1): BEVFormerLayer(
            (attentions): ModuleList(
              (0): TemporalSelfAttention(
                (dropout): Dropout(p=0.1, inplace=False)
                (sampling_offsets): Linear(in_features=512, out_features=128, bias=True)
                (attention_weights): Linear(in_features=512, out_features=64, bias=True)
                (value_proj): Linear(in_features=256, out_features=256, bias=True)
                (output_proj): Linear(in_features=256, out_features=256, bias=True)
              )
              (1): SpatialCrossAttention(
                (dropout): Dropout(p=0.1, inplace=False)
                (deformable_attention): MSDeformableAttention3D(
                  (sampling_offsets): Linear(in_features=256, out_features=512, bias=True)
                  (attention_weights): Linear(in_features=256, out_features=256, bias=True)
                  (value_proj): Linear(in_features=256, out_features=256, bias=True)
                )
                (output_proj): Linear(in_features=256, out_features=256, bias=True)
              )
            )
            (ffns): ModuleList(
              (0): FFN(
                (activate): ReLU(inplace=True)
                (layers): Sequential(
                  (0): Sequential(
                    (0): Linear(in_features=256, out_features=512, bias=True)
                    (1): ReLU(inplace=True)
                    (2): Dropout(p=0.1, inplace=False)
                  )
                  (1): Linear(in_features=512, out_features=256, bias=True)
                  (2): Dropout(p=0.1, inplace=False)
                )
                (dropout_layer): Identity()
              )
            )
            (norms): ModuleList(
              (0): LayerNorm((256,), eps=1e-05, elementwise_affine=True)
              (1): LayerNorm((256,), eps=1e-05, elementwise_affine=True)
              (2): LayerNorm((256,), eps=1e-05, elementwise_affine=True)
            )
          )
          (2): BEVFormerLayer(
            (attentions): ModuleList(
              (0): TemporalSelfAttention(
                (dropout): Dropout(p=0.1, inplace=False)
                (sampling_offsets): Linear(in_features=512, out_features=128, bias=True)
                (attention_weights): Linear(in_features=512, out_features=64, bias=True)
                (value_proj): Linear(in_features=256, out_features=256, bias=True)
                (output_proj): Linear(in_features=256, out_features=256, bias=True)
              )
              (1): SpatialCrossAttention(
                (dropout): Dropout(p=0.1, inplace=False)
                (deformable_attention): MSDeformableAttention3D(
                  (sampling_offsets): Linear(in_features=256, out_features=512, bias=True)
                  (attention_weights): Linear(in_features=256, out_features=256, bias=True)
                  (value_proj): Linear(in_features=256, out_features=256, bias=True)
                )
                (output_proj): Linear(in_features=256, out_features=256, bias=True)
              )
            )
            (ffns): ModuleList(
              (0): FFN(
                (activate): ReLU(inplace=True)
                (layers): Sequential(
                  (0): Sequential(
                    (0): Linear(in_features=256, out_features=512, bias=True)
                    (1): ReLU(inplace=True)
                    (2): Dropout(p=0.1, inplace=False)
                  )
                  (1): Linear(in_features=512, out_features=256, bias=True)
                  (2): Dropout(p=0.1, inplace=False)
                )
                (dropout_layer): Identity()
              )
            )
            (norms): ModuleList(
              (0): LayerNorm((256,), eps=1e-05, elementwise_affine=True)
              (1): LayerNorm((256,), eps=1e-05, elementwise_affine=True)
              (2): LayerNorm((256,), eps=1e-05, elementwise_affine=True)
            )
          )
        )
      )
      (decoder): Sequential(
        (0): ConvModule(
          (conv): Conv3d(16, 32, kernel_size=(3, 3, 3), stride=(1, 1, 1), padding=(1, 1, 1), bias=False)
          (bn): BatchNorm3d(32, eps=1e-05, momentum=0.1, affine=True, track_running_stats=True)
          (activate): ReLU(inplace=True)
        )
        (1): ConvModule(
          (conv): Conv3d(32, 32, kernel_size=(3, 3, 3), stride=(1, 1, 1), padding=(1, 1, 1), bias=False)
          (bn): BatchNorm3d(32, eps=1e-05, momentum=0.1, affine=True, track_running_stats=True)
          (activate): ReLU(inplace=True)
        )
      )
      (predicter): Sequential(
        (0): Linear(in_features=32, out_features=64, bias=True)
        (1): Softplus(beta=1, threshold=20)
        (2): Linear(in_features=64, out_features=18, bias=True)
      )
      (can_bus_mlp): Sequential(
        (0): Linear(in_features=18, out_features=128, bias=True)
        (1): ReLU(inplace=True)
        (2): Linear(in_features=128, out_features=256, bias=True)
        (3): ReLU(inplace=True)
        (norm): LayerNorm((256,), eps=1e-05, elementwise_affine=True)
      )
    )
    (bev_embedding): Embedding(40000, 256)
  )
  (img_backbone): RegNet(
    (conv1): Conv2d(3, 32, kernel_size=(3, 3), stride=(2, 2), padding=(1, 1), bias=False)
    (bn1): BatchNorm2d(32, eps=1e-05, momentum=0.1, affine=True, track_running_stats=True)
    (relu): ReLU(inplace=True)
    (layer1): ResLayer(
      (0): Bottleneck(
        (conv1): Conv2d(32, 80, kernel_size=(1, 1), stride=(1, 1), bias=False)
        (bn1): BatchNorm2d(80, eps=1e-05, momentum=0.1, affine=True, track_running_stats=True)
        (conv2): Conv2d(80, 80, kernel_size=(3, 3), stride=(2, 2), padding=(1, 1), groups=2, bias=False)
        (bn2): BatchNorm2d(80, eps=1e-05, momentum=0.1, affine=True, track_running_stats=True)
        (conv3): Conv2d(80, 80, kernel_size=(1, 1), stride=(1, 1), bias=False)
        (bn3): BatchNorm2d(80, eps=1e-05, momentum=0.1, affine=True, track_running_stats=True)
        (relu): ReLU(inplace=True)
        (downsample): Sequential(
          (0): Conv2d(32, 80, kernel_size=(1, 1), stride=(2, 2), bias=False)
          (1): BatchNorm2d(80, eps=1e-05, momentum=0.1, affine=True, track_running_stats=True)
        )
      )
      (1): Bottleneck(
        (conv1): Conv2d(80, 80, kernel_size=(1, 1), stride=(1, 1), bias=False)
        (bn1): BatchNorm2d(80, eps=1e-05, momentum=0.1, affine=True, track_running_stats=True)
        (conv2): Conv2d(80, 80, kernel_size=(3, 3), stride=(1, 1), padding=(1, 1), groups=2, bias=False)
        (bn2): BatchNorm2d(80, eps=1e-05, momentum=0.1, affine=True, track_running_stats=True)
        (conv3): Conv2d(80, 80, kernel_size=(1, 1), stride=(1, 1), bias=False)
        (bn3): BatchNorm2d(80, eps=1e-05, momentum=0.1, affine=True, track_running_stats=True)
        (relu): ReLU(inplace=True)
      )
    )
    (layer2): ResLayer(
      (0): Bottleneck(
        (conv1): Conv2d(80, 240, kernel_size=(1, 1), stride=(1, 1), bias=False)
        (bn1): BatchNorm2d(240, eps=1e-05, momentum=0.1, affine=True, track_running_stats=True)
        (conv2): Conv2d(240, 240, kernel_size=(3, 3), stride=(2, 2), padding=(1, 1), groups=6, bias=False)
        (bn2): BatchNorm2d(240, eps=1e-05, momentum=0.1, affine=True, track_running_stats=True)
        (conv3): Conv2d(240, 240, kernel_size=(1, 1), stride=(1, 1), bias=False)
        (bn3): BatchNorm2d(240, eps=1e-05, momentum=0.1, affine=True, track_running_stats=True)
        (relu): ReLU(inplace=True)
        (downsample): Sequential(
          (0): Conv2d(80, 240, kernel_size=(1, 1), stride=(2, 2), bias=False)
          (1): BatchNorm2d(240, eps=1e-05, momentum=0.1, affine=True, track_running_stats=True)
        )
      )
      (1): Bottleneck(
        (conv1): Conv2d(240, 240, kernel_size=(1, 1), stride=(1, 1), bias=False)
        (bn1): BatchNorm2d(240, eps=1e-05, momentum=0.1, affine=True, track_running_stats=True)
        (conv2): Conv2d(240, 240, kernel_size=(3, 3), stride=(1, 1), padding=(1, 1), groups=6, bias=False)
        (bn2): BatchNorm2d(240, eps=1e-05, momentum=0.1, affine=True, track_running_stats=True)
        (conv3): Conv2d(240, 240, kernel_size=(1, 1), stride=(1, 1), bias=False)
        (bn3): BatchNorm2d(240, eps=1e-05, momentum=0.1, affine=True, track_running_stats=True)
        (relu): ReLU(inplace=True)
      )
      (2): Bottleneck(
        (conv1): Conv2d(240, 240, kernel_size=(1, 1), stride=(1, 1), bias=False)
        (bn1): BatchNorm2d(240, eps=1e-05, momentum=0.1, affine=True, track_running_stats=True)
        (conv2): Conv2d(240, 240, kernel_size=(3, 3), stride=(1, 1), padding=(1, 1), groups=6, bias=False)
        (bn2): BatchNorm2d(240, eps=1e-05, momentum=0.1, affine=True, track_running_stats=True)
        (conv3): Conv2d(240, 240, kernel_size=(1, 1), stride=(1, 1), bias=False)
        (bn3): BatchNorm2d(240, eps=1e-05, momentum=0.1, affine=True, track_running_stats=True)
        (relu): ReLU(inplace=True)
      )
      (3): Bottleneck(
        (conv1): Conv2d(240, 240, kernel_size=(1, 1), stride=(1, 1), bias=False)
        (bn1): BatchNorm2d(240, eps=1e-05, momentum=0.1, affine=True, track_running_stats=True)
        (conv2): Conv2d(240, 240, kernel_size=(3, 3), stride=(1, 1), padding=(1, 1), groups=6, bias=False)
        (bn2): BatchNorm2d(240, eps=1e-05, momentum=0.1, affine=True, track_running_stats=True)
        (conv3): Conv2d(240, 240, kernel_size=(1, 1), stride=(1, 1), bias=False)
        (bn3): BatchNorm2d(240, eps=1e-05, momentum=0.1, affine=True, track_running_stats=True)
        (relu): ReLU(inplace=True)
      )
      (4): Bottleneck(
        (conv1): Conv2d(240, 240, kernel_size=(1, 1), stride=(1, 1), bias=False)
        (bn1): BatchNorm2d(240, eps=1e-05, momentum=0.1, affine=True, track_running_stats=True)
        (conv2): Conv2d(240, 240, kernel_size=(3, 3), stride=(1, 1), padding=(1, 1), groups=6, bias=False)
        (bn2): BatchNorm2d(240, eps=1e-05, momentum=0.1, affine=True, track_running_stats=True)
        (conv3): Conv2d(240, 240, kernel_size=(1, 1), stride=(1, 1), bias=False)
        (bn3): BatchNorm2d(240, eps=1e-05, momentum=0.1, affine=True, track_running_stats=True)
        (relu): ReLU(inplace=True)
      )
    )
    (layer3): ResLayer(
      (0): Bottleneck(
        (conv1): Conv2d(240, 560, kernel_size=(1, 1), stride=(1, 1), bias=False)
        (bn1): BatchNorm2d(560, eps=1e-05, momentum=0.1, affine=True, track_running_stats=True)
        (conv2): Conv2d(560, 560, kernel_size=(3, 3), stride=(2, 2), padding=(1, 1), groups=14, bias=False)
        (bn2): BatchNorm2d(560, eps=1e-05, momentum=0.1, affine=True, track_running_stats=True)
        (conv3): Conv2d(560, 560, kernel_size=(1, 1), stride=(1, 1), bias=False)
        (bn3): BatchNorm2d(560, eps=1e-05, momentum=0.1, affine=True, track_running_stats=True)
        (relu): ReLU(inplace=True)
        (downsample): Sequential(
          (0): Conv2d(240, 560, kernel_size=(1, 1), stride=(2, 2), bias=False)
          (1): BatchNorm2d(560, eps=1e-05, momentum=0.1, affine=True, track_running_stats=True)
        )
      )
      (1): Bottleneck(
        (conv1): Conv2d(560, 560, kernel_size=(1, 1), stride=(1, 1), bias=False)
        (bn1): BatchNorm2d(560, eps=1e-05, momentum=0.1, affine=True, track_running_stats=True)
        (conv2): Conv2d(560, 560, kernel_size=(3, 3), stride=(1, 1), padding=(1, 1), groups=14, bias=False)
        (bn2): BatchNorm2d(560, eps=1e-05, momentum=0.1, affine=True, track_running_stats=True)
        (conv3): Conv2d(560, 560, kernel_size=(1, 1), stride=(1, 1), bias=False)
        (bn3): BatchNorm2d(560, eps=1e-05, momentum=0.1, affine=True, track_running_stats=True)
        (relu): ReLU(inplace=True)
      )
      (2): Bottleneck(
        (conv1): Conv2d(560, 560, kernel_size=(1, 1), stride=(1, 1), bias=False)
        (bn1): BatchNorm2d(560, eps=1e-05, momentum=0.1, affine=True, track_running_stats=True)
        (conv2): Conv2d(560, 560, kernel_size=(3, 3), stride=(1, 1), padding=(1, 1), groups=14, bias=False)
        (bn2): BatchNorm2d(560, eps=1e-05, momentum=0.1, affine=True, track_running_stats=True)
        (conv3): Conv2d(560, 560, kernel_size=(1, 1), stride=(1, 1), bias=False)
        (bn3): BatchNorm2d(560, eps=1e-05, momentum=0.1, affine=True, track_running_stats=True)
        (relu): ReLU(inplace=True)
      )
      (3): Bottleneck(
        (conv1): Conv2d(560, 560, kernel_size=(1, 1), stride=(1, 1), bias=False)
        (bn1): BatchNorm2d(560, eps=1e-05, momentum=0.1, affine=True, track_running_stats=True)
        (conv2): Conv2d(560, 560, kernel_size=(3, 3), stride=(1, 1), padding=(1, 1), groups=14, bias=False)
        (bn2): BatchNorm2d(560, eps=1e-05, momentum=0.1, affine=True, track_running_stats=True)
        (conv3): Conv2d(560, 560, kernel_size=(1, 1), stride=(1, 1), bias=False)
        (bn3): BatchNorm2d(560, eps=1e-05, momentum=0.1, affine=True, track_running_stats=True)
        (relu): ReLU(inplace=True)
      )
      (4): Bottleneck(
        (conv1): Conv2d(560, 560, kernel_size=(1, 1), stride=(1, 1), bias=False)
        (bn1): BatchNorm2d(560, eps=1e-05, momentum=0.1, affine=True, track_running_stats=True)
        (conv2): Conv2d(560, 560, kernel_size=(3, 3), stride=(1, 1), padding=(1, 1), groups=14, bias=False)
        (bn2): BatchNorm2d(560, eps=1e-05, momentum=0.1, affine=True, track_running_stats=True)
        (conv3): Conv2d(560, 560, kernel_size=(1, 1), stride=(1, 1), bias=False)
        (bn3): BatchNorm2d(560, eps=1e-05, momentum=0.1, affine=True, track_running_stats=True)
        (relu): ReLU(inplace=True)
      )
      (5): Bottleneck(
        (conv1): Conv2d(560, 560, kernel_size=(1, 1), stride=(1, 1), bias=False)
        (bn1): BatchNorm2d(560, eps=1e-05, momentum=0.1, affine=True, track_running_stats=True)
        (conv2): Conv2d(560, 560, kernel_size=(3, 3), stride=(1, 1), padding=(1, 1), groups=14, bias=False)
        (bn2): BatchNorm2d(560, eps=1e-05, momentum=0.1, affine=True, track_running_stats=True)
        (conv3): Conv2d(560, 560, kernel_size=(1, 1), stride=(1, 1), bias=False)
        (bn3): BatchNorm2d(560, eps=1e-05, momentum=0.1, affine=True, track_running_stats=True)
        (relu): ReLU(inplace=True)
      )
      (6): Bottleneck(
        (conv1): Conv2d(560, 560, kernel_size=(1, 1), stride=(1, 1), bias=False)
        (bn1): BatchNorm2d(560, eps=1e-05, momentum=0.1, affine=True, track_running_stats=True)
        (conv2): Conv2d(560, 560, kernel_size=(3, 3), stride=(1, 1), padding=(1, 1), groups=14, bias=False)
        (bn2): BatchNorm2d(560, eps=1e-05, momentum=0.1, affine=True, track_running_stats=True)
        (conv3): Conv2d(560, 560, kernel_size=(1, 1), stride=(1, 1), bias=False)
        (bn3): BatchNorm2d(560, eps=1e-05, momentum=0.1, affine=True, track_running_stats=True)
        (relu): ReLU(inplace=True)
      )
      (7): Bottleneck(
        (conv1): Conv2d(560, 560, kernel_size=(1, 1), stride=(1, 1), bias=False)
        (bn1): BatchNorm2d(560, eps=1e-05, momentum=0.1, affine=True, track_running_stats=True)
        (conv2): Conv2d(560, 560, kernel_size=(3, 3), stride=(1, 1), padding=(1, 1), groups=14, bias=False)
        (bn2): BatchNorm2d(560, eps=1e-05, momentum=0.1, affine=True, track_running_stats=True)
        (conv3): Conv2d(560, 560, kernel_size=(1, 1), stride=(1, 1), bias=False)
        (bn3): BatchNorm2d(560, eps=1e-05, momentum=0.1, affine=True, track_running_stats=True)
        (relu): ReLU(inplace=True)
      )
      (8): Bottleneck(
        (conv1): Conv2d(560, 560, kernel_size=(1, 1), stride=(1, 1), bias=False)
        (bn1): BatchNorm2d(560, eps=1e-05, momentum=0.1, affine=True, track_running_stats=True)
        (conv2): Conv2d(560, 560, kernel_size=(3, 3), stride=(1, 1), padding=(1, 1), groups=14, bias=False)
        (bn2): BatchNorm2d(560, eps=1e-05, momentum=0.1, affine=True, track_running_stats=True)
        (conv3): Conv2d(560, 560, kernel_size=(1, 1), stride=(1, 1), bias=False)
        (bn3): BatchNorm2d(560, eps=1e-05, momentum=0.1, affine=True, track_running_stats=True)
        (relu): ReLU(inplace=True)
      )
      (9): Bottleneck(
        (conv1): Conv2d(560, 560, kernel_size=(1, 1), stride=(1, 1), bias=False)
        (bn1): BatchNorm2d(560, eps=1e-05, momentum=0.1, affine=True, track_running_stats=True)
        (conv2): Conv2d(560, 560, kernel_size=(3, 3), stride=(1, 1), padding=(1, 1), groups=14, bias=False)
        (bn2): BatchNorm2d(560, eps=1e-05, momentum=0.1, affine=True, track_running_stats=True)
        (conv3): Conv2d(560, 560, kernel_size=(1, 1), stride=(1, 1), bias=False)
        (bn3): BatchNorm2d(560, eps=1e-05, momentum=0.1, affine=True, track_running_stats=True)
        (relu): ReLU(inplace=True)
      )
      (10): Bottleneck(
        (conv1): Conv2d(560, 560, kernel_size=(1, 1), stride=(1, 1), bias=False)
        (bn1): BatchNorm2d(560, eps=1e-05, momentum=0.1, affine=True, track_running_stats=True)
        (conv2): Conv2d(560, 560, kernel_size=(3, 3), stride=(1, 1), padding=(1, 1), groups=14, bias=False)
        (bn2): BatchNorm2d(560, eps=1e-05, momentum=0.1, affine=True, track_running_stats=True)
        (conv3): Conv2d(560, 560, kernel_size=(1, 1), stride=(1, 1), bias=False)
        (bn3): BatchNorm2d(560, eps=1e-05, momentum=0.1, affine=True, track_running_stats=True)
        (relu): ReLU(inplace=True)
      )
      (11): Bottleneck(
        (conv1): Conv2d(560, 560, kernel_size=(1, 1), stride=(1, 1), bias=False)
        (bn1): BatchNorm2d(560, eps=1e-05, momentum=0.1, affine=True, track_running_stats=True)
        (conv2): Conv2d(560, 560, kernel_size=(3, 3), stride=(1, 1), padding=(1, 1), groups=14, bias=False)
        (bn2): BatchNorm2d(560, eps=1e-05, momentum=0.1, affine=True, track_running_stats=True)
        (conv3): Conv2d(560, 560, kernel_size=(1, 1), stride=(1, 1), bias=False)
        (bn3): BatchNorm2d(560, eps=1e-05, momentum=0.1, affine=True, track_running_stats=True)
        (relu): ReLU(inplace=True)
      )
      (12): Bottleneck(
        (conv1): Conv2d(560, 560, kernel_size=(1, 1), stride=(1, 1), bias=False)
        (bn1): BatchNorm2d(560, eps=1e-05, momentum=0.1, affine=True, track_running_stats=True)
        (conv2): Conv2d(560, 560, kernel_size=(3, 3), stride=(1, 1), padding=(1, 1), groups=14, bias=False)
        (bn2): BatchNorm2d(560, eps=1e-05, momentum=0.1, affine=True, track_running_stats=True)
        (conv3): Conv2d(560, 560, kernel_size=(1, 1), stride=(1, 1), bias=False)
        (bn3): BatchNorm2d(560, eps=1e-05, momentum=0.1, affine=True, track_running_stats=True)
        (relu): ReLU(inplace=True)
      )
      (13): Bottleneck(
        (conv1): Conv2d(560, 560, kernel_size=(1, 1), stride=(1, 1), bias=False)
        (bn1): BatchNorm2d(560, eps=1e-05, momentum=0.1, affine=True, track_running_stats=True)
        (conv2): Conv2d(560, 560, kernel_size=(3, 3), stride=(1, 1), padding=(1, 1), groups=14, bias=False)
        (bn2): BatchNorm2d(560, eps=1e-05, momentum=0.1, affine=True, track_running_stats=True)
        (conv3): Conv2d(560, 560, kernel_size=(1, 1), stride=(1, 1), bias=False)
        (bn3): BatchNorm2d(560, eps=1e-05, momentum=0.1, affine=True, track_running_stats=True)
        (relu): ReLU(inplace=True)
      )
    )
    (layer4): ResLayer(
      (0): Bottleneck(
        (conv1): Conv2d(560, 1360, kernel_size=(1, 1), stride=(1, 1), bias=False)
        (bn1): BatchNorm2d(1360, eps=1e-05, momentum=0.1, affine=True, track_running_stats=True)
        (conv2): Conv2d(1360, 1360, kernel_size=(3, 3), stride=(2, 2), padding=(1, 1), groups=34, bias=False)
        (bn2): BatchNorm2d(1360, eps=1e-05, momentum=0.1, affine=True, track_running_stats=True)
        (conv3): Conv2d(1360, 1360, kernel_size=(1, 1), stride=(1, 1), bias=False)
        (bn3): BatchNorm2d(1360, eps=1e-05, momentum=0.1, affine=True, track_running_stats=True)
        (relu): ReLU(inplace=True)
        (downsample): Sequential(
          (0): Conv2d(560, 1360, kernel_size=(1, 1), stride=(2, 2), bias=False)
          (1): BatchNorm2d(1360, eps=1e-05, momentum=0.1, affine=True, track_running_stats=True)
        )
      )
      (1): Bottleneck(
        (conv1): Conv2d(1360, 1360, kernel_size=(1, 1), stride=(1, 1), bias=False)
        (bn1): BatchNorm2d(1360, eps=1e-05, momentum=0.1, affine=True, track_running_stats=True)
        (conv2): Conv2d(1360, 1360, kernel_size=(3, 3), stride=(1, 1), padding=(1, 1), groups=34, bias=False)
        (bn2): BatchNorm2d(1360, eps=1e-05, momentum=0.1, affine=True, track_running_stats=True)
        (conv3): Conv2d(1360, 1360, kernel_size=(1, 1), stride=(1, 1), bias=False)
        (bn3): BatchNorm2d(1360, eps=1e-05, momentum=0.1, affine=True, track_running_stats=True)
        (relu): ReLU(inplace=True)
      )
    )
  )
  init_cfg={'type': 'Pretrained', 'checkpoint': 'open-mmlab://regnetx_4.0gf'}
  (img_neck): FPN(
    (lateral_convs): ModuleList(
      (0): ConvModule(
        (conv): Conv2d(80, 256, kernel_size=(1, 1), stride=(1, 1))
      )
      (1): ConvModule(
        (conv): Conv2d(240, 256, kernel_size=(1, 1), stride=(1, 1))
      )
      (2): ConvModule(
        (conv): Conv2d(560, 256, kernel_size=(1, 1), stride=(1, 1))
      )
      (3): ConvModule(
        (conv): Conv2d(1360, 256, kernel_size=(1, 1), stride=(1, 1))
      )
    )
    (fpn_convs): ModuleList(
      (0): ConvModule(
        (conv): Conv2d(256, 256, kernel_size=(3, 3), stride=(1, 1), padding=(1, 1))
      )
      (1): ConvModule(
        (conv): Conv2d(256, 256, kernel_size=(3, 3), stride=(1, 1), padding=(1, 1))
      )
      (2): ConvModule(
        (conv): Conv2d(256, 256, kernel_size=(3, 3), stride=(1, 1), padding=(1, 1))
      )
      (3): ConvModule(
        (conv): Conv2d(256, 256, kernel_size=(3, 3), stride=(1, 1), padding=(1, 1))
      )
    )
  )
  init_cfg={'type': 'Xavier', 'layer': 'Conv2d', 'distribution': 'uniform'}
  (grid_mask): GridMask()
)
2023-05-18 13:46:28,464 - mmdet - INFO - load checkpoint from local path: ckpts/regnet_checkpoint4coco_keys.pth
2023-05-18 13:46:28,965 - mmdet - WARNING - The model and loaded state dict do not match exactly

unexpec
…
